…
      "code_hash": "6b5b617f7b4c595dd67b1ab2d089cd79",
      "outputs": [
        {
          "type": "data",
          "data": {
            "text/html": "<pre class='text-xs'>MBartForConditionalGeneration(\n  (model): MBartModel(\n    (shared): MBartScaledWordEmbedding(40004, 768, padding_idx=1)\n    (encoder): MBartEncoder(\n      (embed_tokens): MBartScaledWordEmbedding(40004, 768, padding_idx=1)\n      (embed_positions): MBartLearnedPositionalEmbedding(1026, 768)\n      (layers): ModuleList(\n        (0-5): 6 x MBartEncoderLayer(\n          (self_attn): MBartAttention(\n            (k_proj): Linear(in_features=768, out_features=768, bias=True)\n            (v_proj): Linear(in_features=768, out_features=768, bias=True)\n            (q_proj): Linear(in_features=768, out_features=768, bias=True)\n            (out_proj): Linear(in_features=768, out_features=768, bias=True)\n          )\n          (self_attn_layer_norm): LayerNorm((768,), eps=1e-05, elementwise_affine=True)\n          (activation_fn): GELUActivation()\n          (fc1): Linear(in_features=768, out_features=3072, bias=True)\n          (fc2): Linear(in_features=3072, out_features=768, bias=True)\n          (final_layer_norm): LayerNorm((768,), eps=1e-05, elementwise_affine=True)\n        )\n      )\n      (layernorm_embedding): LayerNorm((768,), eps=1e-05, elementwise_affine=True)\n      (layer_norm): LayerNorm((768,), eps=1e-05, elementwise_affine=True)\n    )\n    (decoder): MBartDecoder(\n      (embed_tokens): MBartScaledWordEmbedding(40004, 768, padding_idx=1)\n      (embed_positions): MBartLearnedPositionalEmbedding(1026, 768)\n      (layers): ModuleList(\n        (0-5): 6 x MBartDecoderLayer(\n          (self_attn): MBartAttention(\n            (k_proj): Linear(in_features=768, out_features=768, bias=True)\n            (v_proj): Linear(in_features=768, out_features=768, bias=True)\n            (q_proj): Linear(in_features=768, out_features=768, bias=True)\n            (out_proj): Linear(in_features=768, out_features=768, bias=True)\n          )\n          (activation_fn): GELUActivation()\n          (self_attn_layer_norm): LayerNorm((768,), eps=1e-05, elementwise_affine=True)\n          (encoder_attn): MBartAttention(\n            (k_proj): Linear(in_features=768, out_features=768, bias=True)\n            (v_proj): Linear(in_features=768, out_features=768, bias=True)\n            (q_proj): Linear(in_features=768, out_features=768, bias=True)\n            (out_proj): Linear(in_features=768, out_features=768, bias=True)\n          )\n          (encoder_attn_layer_norm): LayerNorm((768,), eps=1e-05, elementwise_affine=True)\n          (fc1): Linear(in_features=768, out_features=3072, bias=True)\n          (fc2): Linear(in_features=3072, out_features=768, bias=True)\n          (final_layer_norm): LayerNorm((768,), eps=1e-05, elementwise_affine=True)\n        )\n      )\n      (layernorm_embedding): LayerNorm((768,), eps=1e-05, elementwise_affine=True)\n      (layer_norm): LayerNorm((768,), eps=1e-05, elementwise_affine=True)\n    )\n  )\n  (lm_head): Linear(in_features=768, out_features=40004, bias=False)\n)</pre>"
          }
        }
      ],
      "console": []
    },
    {
      "id": "bkHC",
      "code_hash": "02deaee9c16c16d9110bd9e660ce92c6",
      "outputs": [
        {
          "type": "data",
          "data": {
            "text/html": "<pre class='text-xs'>IndoNLGTokenizer(name_or_path=&#x27;indobenchmark/indobart-v2&#x27;, vocab_size=
…
